…
2021-05-13 14:10:54.578898: I tensorflow/core/common_runtime/gpu/gpu_device.cc:1402] Created TensorFlow device (/job:localhost/replica:0/task:0/device:GPU:0 with 4743 MB memory) -> physical GPU (device: 0, name: GeForce GTX 1660 Ti, pci bus id: 0000:01:00.0, compute capability: 7.5)
2021-05-13 14:10:54.584193: I tensorflow/compiler/xla/service/service.cc:168] XLA service 0x1ee77334940 initialized for platform CUDA (this does not guarantee that XLA will be used). Devices:
2021-05-13 14:10:54.584323: I tensorflow/compiler/xla/service/service.cc:176]   StreamExecutor device (0): GeForce GTX 1660 Ti, Compute Capability 7.5
Model: "sequential"
_________________________________________________________________
Layer (type)                 Output Shape              Param #
=================================================================
conv2d (Conv2D)              (None, 54, 54, 96)        34944
_________________________________________________________________
activation (Activation)      (None, 54, 54, 96)        0
_________________________________________________________________
max_pooling2d (MaxPooling2D) (None, 27, 27, 96)        0
_________________________________________________________________
batch_normalization (BatchNo (None, 27, 27, 96)        384
_________________________________________________________________
conv2d_1 (Conv2D)            (None, 17, 17, 256)       2973952
_________________________________________________________________
activation_1 (Activation)    (None, 17, 17, 256)       0
_________________________________________________________________
max_pooling2d_1 (MaxPooling2 (None, 8, 8, 256)         0
_________________________________________________________________
batch_normalization_1 (Batch (None, 8, 8, 256)         1024
_________________________________________________________________
conv2d_2 (Conv2D)            (None, 6, 6, 384)         885120
_________________________________________________________________
activation_2 (Activation)    (None, 6, 6, 384)         0
_________________________________________________________________
batch_normalization_2 (Batch (None, 6, 6, 384)         1536
_________________________________________________________________
conv2d_3 (Conv2D)            (None, 4, 4, 384)         1327488
_________________________________________________________________
activation_3 (Activation)    (None, 4, 4, 384)         0
_________________________________________________________________
batch_normalization_3 (Batch (None, 4, 4, 384)         1536
_________________________________________________________________
conv2d_4 (Conv2D)            (None, 2, 2, 256)         884992
_________________________________________________________________
activation_4 (Activation)    (None, 2, 2, 256)         0
_________________________________________________________________
max_pooling2d_2 (MaxPooling2 (None, 1, 1, 256)         0
_________________________________________________________________
batch_normalization_4 (Batch (None, 1, 1, 256)         1024
_________________________________________________________________
flatten (Flatten)            (None, 256)               0
_________________________________________________________________
dense (Dense)                (None, 4096)              1052672
_________________________________________________________________
activation_5 (Activation)    (None, 4096)              0
_________________________________________________________________
dropout (Dropout)            (None, 4096)              0
_________________________________________________________________
batch_normalization_5 (Batch (None, 4096)              16384
_________________________________________________________________
dense_1 (Dense)              (None, 4096)              16781312
_________________________________________________________________
activation_6 (Activation)    (None, 4096)              0
_________________________________________________________________
dropout_1 (Dropout)          (None, 4096)              0
_________________________________________________________________
batch_normalization_6 (Batch (None, 4096)              16384
_________________________________________________________________
dense_2 (Dense)              (None, 1000)              4097000
_________________________________________________________________
activation_7 (Activation)    (None, 1000)              0
_________________________________________________________________
dropout_2 (Dropout)          (None, 1000)              0
_________________________________________________________________
batch_normalization_7 (Batch (None, 1000)              4000
_________________________________________________________________
dense_3 (Dense)              (None, 102)               102102
_________________________________________________________________
activation_8 (Activation)    (None, 102)               0
=================================================================
Total params: 28,181,854
Trainable params: 28,160,718
Non-trainable params: 21,136
_________________________________________________________________
Epoch 1/100
2021-05-13 14:10:56.384422: I tensorflow/stream_executor/platform/default/dso_loader.cc:48] Successfully opened dynamic library cublas64_10.dll
2021-05-13 14:10:57.354862: I tensorflow/stream_executor/platform/default/dso_loader.cc:48] Successfully opened dynamic library cudnn64_7.dll
…
